…
2017-12-17 16:41:16.259558: I tensorflow/core/common_runtime/gpu/gpu_device.cc:976] DMA: 0
2017-12-17 16:41:16.259585: I tensorflow/core/common_runtime/gpu/gpu_device.cc:986] 0:   Y
2017-12-17 16:41:16.259613: I tensorflow/core/common_runtime/gpu/gpu_device.cc:1045] Creating TensorFlow device (/gpu:0) -> (device: 0, name: GeForce GTX 1050 Ti, pci bus id: 0000:01:00.0)
____________________________________________________________________________________________________
Layer (type)                     Output Shape          Param #     Connected to
====================================================================================================
input_1 (InputLayer)             (None, 80, 160, 3)    0
____________________________________________________________________________________________________
batch_normalization_1 (BatchNorm (None, 80, 160, 3)    12          input_1[0][0]
____________________________________________________________________________________________________
Conv0 (Conv2D)                   (None, 78, 158, 16)   448         batch_normalization_1[0][0]
____________________________________________________________________________________________________
Conv1C (Conv2D)                  (None, 76, 156, 32)   4640        Conv0[0][0]
____________________________________________________________________________________________________
Pooling1C (MaxPooling2D)         (None, 38, 78, 32)    0           Conv1C[0][0]
____________________________________________________________________________________________________
Conv2C (Conv2D)                  (None, 36, 76, 64)    18496       Pooling1C[0][0]
____________________________________________________________________________________________________
dropout_3 (Dropout)              (None, 36, 76, 64)    0           Conv2C[0][0]
____________________________________________________________________________________________________
Pooling2C (MaxPooling2D)         (None, 18, 38, 64)    0           dropout_3[0][0]
____________________________________________________________________________________________________
Conv3C (Conv2D)                  (None, 16, 36, 128)   73856       Pooling2C[0][0]
____________________________________________________________________________________________________
Conv1B (Conv2D)                  (None, 76, 156, 32)   4640        Conv0[0][0]
____________________________________________________________________________________________________
dropout_4 (Dropout)              (None, 16, 36, 128)   0           Conv3C[0][0]
____________________________________________________________________________________________________
Pooling1B (MaxPooling2D)         (None, 38, 78, 32)    0           Conv1B[0][0]
____________________________________________________________________________________________________
Pooling3C (MaxPooling2D)         (None, 8, 18, 128)    0           dropout_4[0][0]
____________________________________________________________________________________________________
Conv2B (Conv2D)                  (None, 36, 76, 64)    18496       Pooling1B[0][0]
____________________________________________________________________________________________________
UpSampling1C (UpSampling2D)      (None, 16, 36, 128)   0           Pooling3C[0][0]
____________________________________________________________________________________________________
dropout_2 (Dropout)              (None, 36, 76, 64)    0           Conv2B[0][0]
____________________________________________________________________________________________________
Deconv1C (Conv2DTranspose)       (None, 18, 38, 128)   147584      UpSampling1C[0][0]
____________________________________________________________________________________________________
Conv1A (Conv2D)                  (None, 76, 156, 32)   4640        Conv0[0][0]
____________________________________________________________________________________________________
Pooling2B (MaxPooling2D)         (None, 18, 38, 64)    0           dropout_2[0][0]
____________________________________________________________________________________________________
dropout_5 (Dropout)              (None, 18, 38, 128)   0           Deconv1C[0][0]
____________________________________________________________________________________________________
dropout_1 (Dropout)              (None, 76, 156, 32)   0           Conv1A[0][0]
____________________________________________________________________________________________________
UpSampling1B (UpSampling2D)      (None, 36, 76, 64)    0           Pooling2B[0][0]
____________________________________________________________________________________________________
UpSampling2C (UpSampling2D)      (None, 36, 76, 128)   0           dropout_5[0][0]
____________________________________________________________________________________________________
Pooling1A (MaxPooling2D)         (None, 38, 78, 32)    0           dropout_1[0][0]
____________________________________________________________________________________________________
Deconv1B (Conv2DTranspose)       (None, 38, 78, 64)    36928       UpSampling1B[0][0]
____________________________________________________________________________________________________
Deconv2C (Conv2DTranspose)       (None, 38, 78, 64)    73792       UpSampling2C[0][0]
____________________________________________________________________________________________________
UpSampling1A (UpSampling2D)      (None, 76, 156, 32)   0           Pooling1A[0][0]
____________________________________________________________________________________________________
dropout_7 (Dropout)              (None, 38, 78, 64)    0           Deconv1B[0][0]
____________________________________________________________________________________________________
dropout_6 (Dropout)              (None, 38, 78, 64)    0           Deconv2C[0][0]
____________________________________________________________________________________________________
Deconv1A (Conv2DTranspose)       (None, 78, 158, 32)   9248        UpSampling1A[0][0]
____________________________________________________________________________________________________
UpSampling2B (UpSampling2D)      (None, 76, 156, 64)   0           dropout_7[0][0]
____________________________________________________________________________________________________
UpSampling3C (UpSampling2D)      (None, 76, 156, 64)   0           dropout_6[0][0]
____________________________________________________________________________________________________
dropout_8 (Dropout)              (None, 78, 158, 32)   0           Deconv1A[0][0]
____________________________________________________________________________________________________
Deconv2B (Conv2DTranspose)       (None, 78, 158, 32)   18464       UpSampling2B[0][0]
____________________________________________________________________________________________________
Deconv3C (Conv2DTranspose)       (None, 78, 158, 32)   18464       UpSampling3C[0][0]
____________________________________________________________________________________________________
concatenate_1 (Concatenate)      (None, 78, 158, 96)   0           dropout_8[0][0]
                                                                   Deconv2B[0][0]
                                                                   Deconv3C[0][0]
____________________________________________________________________________________________________
Deconv0 (Conv2DTranspose)        (None, 80, 160, 1)    865         concatenate_1[0][0]
====================================================================================================
Total params: 430,573
Trainable params: 430,567
Non-trainable params: 6
____________________________________________________________________________________________________
Epoch 1/100
11480/11487 [============================>.] - ETA: 0s - loss: 0.0173 - acc: 0.9481Epoch 00000: saving model to weights_b_dropout/weights.00-0.0173-0.9481.hdf5
…
