…
2017-12-17 21:34:11.638347: I tensorflow/core/common_runtime/gpu/gpu_device.cc:976] DMA: 0
2017-12-17 21:34:11.638352: I tensorflow/core/common_runtime/gpu/gpu_device.cc:986] 0:   Y
2017-12-17 21:34:11.638361: I tensorflow/core/common_runtime/gpu/gpu_device.cc:1045] Creating TensorFlow device (/gpu:0) -> (device: 0, name: GeForce GTX 1050 Ti, pci bus id: 0000:01:00.0)
____________________________________________________________________________________________________
Layer (type)                     Output Shape          Param #     Connected to
====================================================================================================
input_1 (InputLayer)             (None, 80, 160, 3)    0
____________________________________________________________________________________________________
batch_normalization_1 (BatchNorm (None, 80, 160, 3)    12          input_1[0][0]
____________________________________________________________________________________________________
Conv0 (Conv2D)                   (None, 78, 158, 16)   448         batch_normalization_1[0][0]
____________________________________________________________________________________________________
Conv1C (Conv2D)                  (None, 76, 156, 16)   2320        Conv0[0][0]
____________________________________________________________________________________________________
Conv1F (Conv2D)                  (None, 68, 148, 16)   30992       Conv0[0][0]
____________________________________________________________________________________________________
Pooling1C (MaxPooling2D)         (None, 38, 78, 16)    0           Conv1C[0][0]
____________________________________________________________________________________________________
Pooling1F (MaxPooling2D)         (None, 34, 74, 16)    0           Conv1F[0][0]
____________________________________________________________________________________________________
Conv2C (Conv2D)                  (None, 36, 76, 32)    4640        Pooling1C[0][0]
____________________________________________________________________________________________________
Conv2F (Conv2D)                  (None, 24, 64, 32)    61984       Pooling1F[0][0]
____________________________________________________________________________________________________
dropout_3 (Dropout)              (None, 36, 76, 32)    0           Conv2C[0][0]
____________________________________________________________________________________________________
dropout_7 (Dropout)              (None, 24, 64, 32)    0           Conv2F[0][0]
____________________________________________________________________________________________________
Pooling2C (MaxPooling2D)         (None, 18, 38, 32)    0           dropout_3[0][0]
____________________________________________________________________________________________________
Pooling2F (MaxPooling2D)         (None, 12, 32, 32)    0           dropout_7[0][0]
____________________________________________________________________________________________________
Conv3C (Conv2D)                  (None, 16, 36, 64)    18496       Pooling2C[0][0]
____________________________________________________________________________________________________
Conv3F (Conv2D)                  (None, 2, 22, 64)     247872      Pooling2F[0][0]
____________________________________________________________________________________________________
Conv1B (Conv2D)                  (None, 76, 156, 16)   2320        Conv0[0][0]
____________________________________________________________________________________________________
dropout_4 (Dropout)              (None, 16, 36, 64)    0           Conv3C[0][0]
____________________________________________________________________________________________________
Conv1E (Conv2D)                  (None, 68, 148, 16)   30992       Conv0[0][0]
____________________________________________________________________________________________________
dropout_8 (Dropout)              (None, 2, 22, 64)     0           Conv3F[0][0]
____________________________________________________________________________________________________
Pooling1B (MaxPooling2D)         (None, 38, 78, 16)    0           Conv1B[0][0]
____________________________________________________________________________________________________
Pooling3C (MaxPooling2D)         (None, 8, 18, 64)     0           dropout_4[0][0]
____________________________________________________________________________________________________
Pooling1E (MaxPooling2D)         (None, 34, 74, 16)    0           Conv1E[0][0]
____________________________________________________________________________________________________
Pooling3F (MaxPooling2D)         (None, 1, 11, 64)     0           dropout_8[0][0]
____________________________________________________________________________________________________
Conv2B (Conv2D)                  (None, 36, 76, 32)    4640        Pooling1B[0][0]
____________________________________________________________________________________________________
UpSampling1C (UpSampling2D)      (None, 16, 36, 64)    0           Pooling3C[0][0]
____________________________________________________________________________________________________
Conv2E (Conv2D)                  (None, 24, 64, 32)    61984       Pooling1E[0][0]
____________________________________________________________________________________________________
UpSampling1F (UpSampling2D)      (None, 2, 22, 64)     0           Pooling3F[0][0]
____________________________________________________________________________________________________
dropout_2 (Dropout)              (None, 36, 76, 32)    0           Conv2B[0][0]
____________________________________________________________________________________________________
Deconv1C (Conv2DTranspose)       (None, 18, 38, 64)    36928       UpSampling1C[0][0]
____________________________________________________________________________________________________
dropout_6 (Dropout)              (None, 24, 64, 32)    0           Conv2E[0][0]
____________________________________________________________________________________________________
Deconv1F (Conv2DTranspose)       (None, 12, 32, 64)    495680      UpSampling1F[0][0]
____________________________________________________________________________________________________
Conv1A (Conv2D)                  (None, 76, 156, 16)   2320        Conv0[0][0]
____________________________________________________________________________________________________
Pooling2B (MaxPooling2D)         (None, 18, 38, 32)    0           dropout_2[0][0]
____________________________________________________________________________________________________
dropout_13 (Dropout)             (None, 18, 38, 64)    0           Deconv1C[0][0]
____________________________________________________________________________________________________
Conv1D (Conv2D)                  (None, 68, 148, 16)   30992       Conv0[0][0]
____________________________________________________________________________________________________
Pooling2E (MaxPooling2D)         (None, 12, 32, 32)    0           dropout_6[0][0]
____________________________________________________________________________________________________
dropout_9 (Dropout)              (None, 12, 32, 64)    0           Deconv1F[0][0]
____________________________________________________________________________________________________
dropout_1 (Dropout)              (None, 76, 156, 16)   0           Conv1A[0][0]
____________________________________________________________________________________________________
UpSampling1B (UpSampling2D)      (None, 36, 76, 32)    0           Pooling2B[0][0]
____________________________________________________________________________________________________
UpSampling2C (UpSampling2D)      (None, 36, 76, 64)    0           dropout_13[0][0]
____________________________________________________________________________________________________
dropout_5 (Dropout)              (None, 68, 148, 16)   0           Conv1D[0][0]
____________________________________________________________________________________________________
UpSampling1E (UpSampling2D)      (None, 24, 64, 32)    0           Pooling2E[0][0]
____________________________________________________________________________________________________
UpSampling2F (UpSampling2D)      (None, 24, 64, 64)    0           dropout_9[0][0]
____________________________________________________________________________________________________
Pooling1A (MaxPooling2D)         (None, 38, 78, 16)    0           dropout_1[0][0]
____________________________________________________________________________________________________
Deconv1B (Conv2DTranspose)       (None, 38, 78, 32)    9248        UpSampling1B[0][0]
____________________________________________________________________________________________________
Deconv2C (Conv2DTranspose)       (None, 38, 78, 32)    18464       UpSampling2C[0][0]
____________________________________________________________________________________________________
Pooling1D (MaxPooling2D)         (None, 34, 74, 16)    0           dropout_5[0][0]
____________________________________________________________________________________________________
Deconv1E (Conv2DTranspose)       (None, 34, 74, 32)    123936      UpSampling1E[0][0]
____________________________________________________________________________________________________
Deconv2F (Conv2DTranspose)       (None, 34, 74, 32)    247840      UpSampling2F[0][0]
____________________________________________________________________________________________________
UpSampling1A (UpSampling2D)      (None, 76, 156, 16)   0           Pooling1A[0][0]
____________________________________________________________________________________________________
dropout_15 (Dropout)             (None, 38, 78, 32)    0           Deconv1B[0][0]
____________________________________________________________________________________________________
dropout_14 (Dropout)             (None, 38, 78, 32)    0           Deconv2C[0][0]
____________________________________________________________________________________________________
UpSampling1D (UpSampling2D)      (None, 68, 148, 16)   0           Pooling1D[0][0]
____________________________________________________________________________________________________
dropout_11 (Dropout)             (None, 34, 74, 32)    0           Deconv1E[0][0]
____________________________________________________________________________________________________
dropout_10 (Dropout)             (None, 34, 74, 32)    0           Deconv2F[0][0]
____________________________________________________________________________________________________
Deconv1A (Conv2DTranspose)       (None, 78, 158, 16)   2320        UpSampling1A[0][0]
____________________________________________________________________________________________________
UpSampling2B (UpSampling2D)      (None, 76, 156, 32)   0           dropout_15[0][0]
____________________________________________________________________________________________________
UpSampling3C (UpSampling2D)      (None, 76, 156, 32)   0           dropout_14[0][0]
____________________________________________________________________________________________________
Deconv1D (Conv2DTranspose)       (None, 78, 158, 16)   30992       UpSampling1D[0][0]
____________________________________________________________________________________________________
UpSampling2E (UpSampling2D)      (None, 68, 148, 32)   0           dropout_11[0][0]
____________________________________________________________________________________________________
UpSampling3F (UpSampling2D)      (None, 68, 148, 32)   0           dropout_10[0][0]
____________________________________________________________________________________________________
dropout_16 (Dropout)             (None, 78, 158, 16)   0           Deconv1A[0][0]
____________________________________________________________________________________________________
Deconv2B (Conv2DTranspose)       (None, 78, 158, 16)   4624        UpSampling2B[0][0]
____________________________________________________________________________________________________
Deconv3C (Conv2DTranspose)       (None, 78, 158, 16)   4624        UpSampling3C[0][0]
____________________________________________________________________________________________________
dropout_12 (Dropout)             (None, 78, 158, 16)   0           Deconv1D[0][0]
____________________________________________________________________________________________________
Deconv2E (Conv2DTranspose)       (None, 78, 158, 16)   61968       UpSampling2E[0][0]
____________________________________________________________________________________________________
Deconv3F (Conv2DTranspose)       (None, 78, 158, 16)   61968       UpSampling3F[0][0]
____________________________________________________________________________________________________
concatenate_1 (Concatenate)      (None, 78, 158, 96)   0           dropout_16[0][0]
                                                                   Deconv2B[0][0]
                                                                   Deconv3C[0][0]
                                                                   dropout_12[0][0]
                                                                   Deconv2E[0][0]
                                                                   Deconv3F[0][0]
____________________________________________________________________________________________________
Deconv0 (Conv2DTranspose)        (None, 80, 160, 1)    865         concatenate_1[0][0]
====================================================================================================
Total params: 1,599,469
Trainable params: 1,599,463
Non-trainable params: 6
____________________________________________________________________________________________________
Epoch 1/100
11480/11487 [============================>.] - ETA: 0s - loss: 0.0141 - acc: 0.9530Epoch 00000: saving model to weights_c/weights.00-0.0141-0.9530.hdf5
…
